…
================================================================================

Detailed Model Summary (via torchinfo):
--------------------------------------------------------------------------------
============================================================================================================================================
Layer (type:depth-idx)                   Output Shape              Param #                   Kernel Shape              Mult-Adds
============================================================================================================================================
DeepEpiCnn                               [1, 2]                    --                        --                        --
├─Sequential: 1-1                        [1, 64, 157]              --                        --                        --
│    └─Conv1d: 2-1                       [1, 16, 746]              96                        [5]                       71,616
│    └─BatchNorm1d: 2-2                  [1, 16, 746]              32                        --                        32
│    └─ReLU: 2-3                         [1, 16, 746]              --                        --                        --
│    └─Dropout: 2-4                      [1, 16, 746]              --                        --                        --
│    └─Conv1d: 2-5                       [1, 32, 742]              2,592                     [5]                       1,923,264
│    └─BatchNorm1d: 2-6                  [1, 32, 742]              64                        --                        64
│    └─ReLU: 2-7                         [1, 32, 742]              --                        --                        --
│    └─Dropout: 2-8                      [1, 32, 742]              --                        --                        --
│    └─Conv1d: 2-9                       [1, 32, 738]              5,152                     [5]                       3,802,176
│    └─BatchNorm1d: 2-10                 [1, 32, 738]              64                        --                        64
│    └─ReLU: 2-11                        [1, 32, 738]              --                        --                        --
│    └─Dropout: 2-12                     [1, 32, 738]              --                        --                        --
│    └─Conv1d: 2-13                      [1, 32, 734]              5,152                     [5]                       3,781,568
│    └─BatchNorm1d: 2-14                 [1, 32, 734]              64                        --                        64
│    └─ReLU: 2-15                        [1, 32, 734]              --                        --                        --
│    └─Dropout: 2-16                     [1, 32, 734]              --                        --                        --
│    └─Conv1d: 2-17                      [1, 32, 365]              5,152                     [5]                       1,880,480
│    └─BatchNorm1d: 2-18                 [1, 32, 365]              64                        --                        64
│    └─ReLU: 2-19                        [1, 32, 365]              --                        --                        --
│    └─Dropout: 2-20                     [1, 32, 365]              --                        --                        --
│    └─Conv1d: 2-21                      [1, 32, 361]              5,152                     [5]                       1,859,872
│    └─BatchNorm1d: 2-22                 [1, 32, 361]              64                        --                        64
│    └─ReLU: 2-23                        [1, 32, 361]              --                        --                        --
│    └─Dropout: 2-24                     [1, 32, 361]              --                        --                        --
│    └─Conv1d: 2-25                      [1, 32, 357]              5,152                     [5]                       1,839,264
│    └─BatchNorm1d: 2-26                 [1, 32, 357]              64                        --                        64
│    └─ReLU: 2-27                        [1, 32, 357]              --                        --                        --
│    └─Dropout: 2-28                     [1, 32, 357]              --                        --                        --
│    └─Conv1d: 2-29                      [1, 32, 353]              5,152                     [5]                       1,818,656
│    └─BatchNorm1d: 2-30                 [1, 32, 353]              64                        --                        64
│    └─ReLU: 2-31                        [1, 32, 353]              --                        --                        --
│    └─Dropout: 2-32                     [1, 32, 353]              --                        --                        --
│    └─Conv1d: 2-33                      [1, 32, 349]              5,152                     [5]                       1,798,048
│    └─BatchNorm1d: 2-34                 [1, 32, 349]              64                        --                        64
│    └─ReLU: 2-35                        [1, 32, 349]              --                        --                        --
│    └─Dropout: 2-36                     [1, 32, 349]              --                        --                        --
│    └─Conv1d: 2-37                      [1, 32, 173]              5,152                     [5]                       891,296
│    └─BatchNorm1d: 2-38                 [1, 32, 173]              64                        --                        64
│    └─ReLU: 2-39                        [1, 32, 173]              --                        --                        --
│    └─Dropout: 2-40                     [1, 32, 173]              --                        --                        --
│    └─Conv1d: 2-41                      [1, 32, 169]              5,152                     [5]                       870,688
│    └─BatchNorm1d: 2-42                 [1, 32, 169]              64                        --                        64
│    └─ReLU: 2-43                        [1, 32, 169]              --                        --                        --
│    └─Dropout: 2-44                     [1, 32, 169]              --                        --                        --
│    └─Conv1d: 2-45                      [1, 32, 165]              5,152                     [5]                       850,080
│    └─BatchNorm1d: 2-46                 [1, 32, 165]              64                        --                        64
│    └─ReLU: 2-47                        [1, 32, 165]              --                        --                        --
│    └─Dropout: 2-48                     [1, 32, 165]              --                        --                        --
│    └─Conv1d: 2-49                      [1, 64, 161]              10,304                    [5]                       1,658,944
│    └─BatchNorm1d: 2-50                 [1, 64, 161]              128                       --                        128
│    └─ReLU: 2-51                        [1, 64, 161]              --                        --                        --
│    └─Dropout: 2-52                     [1, 64, 161]              --                        --                        --
│    └─Conv1d: 2-53                      [1, 64, 157]              20,544                    [5]                       3,225,408
│    └─BatchNorm1d: 2-54                 [1, 64, 157]              128                       --                        128
│    └─ReLU: 2-55                        [1, 64, 157]              --                        --                        --
│    └─Dropout: 2-56                     [1, 64, 157]              --                        --                        --
├─AdaptiveAvgPool1d: 1-2                 [1, 64, 1]                --                        --                        --
├─Linear: 1-3                            [1, 64]                   4,160                     --                        4,160
├─BatchNorm1d: 1-4                       [1, 64]                   128                       --                        128
├─ReLU: 1-5                              [1, 64]                   --                        --                        --
├─Dropout: 1-6                           [1, 64]                   --                        --                        --
├─Linear: 1-7                            [1, 64]                   4,160                     --                        4,160
├─BatchNorm1d: 1-8                       [1, 64]                   128                       --                        128
├─ReLU: 1-9                              [1, 64]                   --                        --                        --
├─Linear: 1-10                           [1, 32]                   2,080                     --                        2,080
├─BatchNorm1d: 1-11                      [1, 32]                   64                        --                        64
├─ReLU: 1-12                             [1, 32]                   --                        --                        --
├─Linear: 1-13                           [1, 16]                   528                       --                        528
├─BatchNorm1d: 1-14                      [1, 16]                   32                        --                        32
├─ReLU: 1-15                             [1, 16]                   --                        --                        --
├─Linear: 1-16                           [1, 2]                    34                        --                        34
============================================================================================================================================
Total params: 97,362
Trainable params: 97,362
Non-trainable params: 0
Total mult-adds (Units.MEGABYTES): 26.28
============================================================================================================================================
…
